cnn_test.onnx (onnx, 2597 bytes, 2 tensors)

2 f4 [5, 2, 3, 10]
-0.07303544 0.00799574 -0.10362427 0.0037120879 0.015938148 0.09079477 -0.03511904 0.09322208
-0.051626816 0.07376094 0.038557634 -0.08114297 -0.09548338 0.10771537 -0.031497337 0.03913738
0.1124948 -0.09424594 0.096447825 -0.12647234 0.0026977658 -0.019021213 0.014688045 -0.10699866
-0.023053952 -0.059811354 0.083981246 0.0019403696 -0.023707777 0.028331488 0.009861082 0.06860472
0.011008427 -0.053766176 -0.09571992 0.0028077215 0.084472016 0.102560654 -0.059534736 0.09513648
0.06848365 0.0537612 0.05464989 0.055235013 -0.07799764 -0.08612251 0.09057814 -0.053006597
-0.044843048 0.05688353 -0.07132085 0.11576471 0.028014764 -0.021225855 -0.11383465 0.11698817
-0.023809768 6.2435865e-06 -0.04583235 -0.017604314 0.10332431 -0.007943317 0.09568584 -0.12465362
-0.094730146 -0.038874216 0.012524754 0.04048966 0.008315489 0.03816542 -0.034116134 -0.03215053
-0.04103858 0.10288781 0.014871433 -0.006374337 -0.09777869 -0.040110156 -0.09765817 0.052848518
-0.0066749007 -0.10205685 0.06755552 0.0019142628 -0.04827652 0.058140695 0.0704093 0.031048551
0.10993452 0.09488058 -0.034059852 0.03153804 -0.017805554 -0.12900971 0.09834279 -0.08638911
-0.088496074 -0.04890968 0.07649732 0.111969605 0.06766346 0.11386289 -0.0003876537 0.030243248
0.07144433 -0.08579606 -0.12373025 -0.046149887 0.029065117 0.047264352 -0.021264054 0.06964055
-0.11269044 0.106770754 -0.06346789 0.12837528 -0.112386376 0.12517522 0.01782383 0.11611472
0.11512262 0.111831024 0.10098922 -0.119895525 0.011712611 0.015259609 -0.034868002 -0.029139578
0.12081112 -0.10814554 -0.02639158 0.1067241 0.09074651 -0.10598449 -0.032162808 -0.07580977
-0.06256843 -0.12017333 0.09466715 -0.023806289 -0.0070481077 0.073271886 0.047188625 0.03248693
0.02667275 0.058677256 -0.017490864 0.043320462 0.098511755 0.11034478 0.03537236 -0.025325187
-0.07544616 -0.09397695 0.04356815 -0.051621534 0.035471767 -0.070571296 0.06726813 0.093897685
0.049757794 -0.0073487163 -0.08552457 -0.08288689 0.0473437 -0.042297408 -0.0902541 0.043426722
0.096534476 0.053823307 -0.10513938 -0.053713664 -0.10086551 -0.088560104 0.064834625 0.0053512007
0.06105353 -0.05883296 0.0964874 -0.05983398 -0.016914278 -0.11341346 -0.09773037 0.11406912
0.109059945 -0.097270794 0.08810376 0.12660117 0.041479453 0.0873121 -0.059227742 0.095254645
-0.06211269 0.061203867 -0.016084164 -0.12473717 -0.01297503 0.069508 -0.014169946 -0.05817312
0.05315432 0.032737747 -0.09971857 -0.08811194 0.1138953 -0.075085 -0.08737161 -0.050979793
-0.00014197826 0.10708107 0.059244066 0.078349754 0.0015473962 -0.01384528 -0.12535408 -0.044356607
0.07154974 0.0005840361 0.06638849 0.12055987 -0.10725162 0.09150688 0.06316146 0.121030524
0.010167614 0.012414247 0.05427462 -0.0074546784 0.030535653 -0.06987335 0.12418823 0.073846444
-0.12434167 0.118101716 0.007546395 0.080069974 0.047501355 -0.0493576 -0.075449914 0.118722185
-0.012737952 -0.0013917685 -0.04349146 -0.013628565 0.07639979 -0.03668025 -0.12354975 -0.040875897
0.12225957 0.06024383 0.10139513 -0.01772423 -0.09962974 -0.0568296 -0.0809568 0.0765717
00000000: 9b93 95bd 9000 033c f638 d4bd 8046 733b
00000010: b890 823c 9cf2 b93d fcd8 0fbd 38eb be3d
00000020: a476 53bd fa0f 973d 9cee 1d3d 492e a6bd
00000030: ca8c c3bd e099 dc3d 5a03 01bd 844e 203d
00000040: ac63 e63d 0404 c1bd 7086 c53d f781 01be
00000050: 00cd 303b 60d2 9bbc 20a6 703c 1d22 dbbd
00000060: a4db bcbc c0fc 74bd 5cfe ab3d 0054 fe3a
00000070: d036 c2bc 7017 e83c 6090 213c a280 8c3d
00000080: b05c 343c ec39 5cbd ce08 c4bd c001 383b
00000090: aaff ac3d 520b d23d b2da 73bd ead6 c23d
000000a0: 2841 8c3d b434 5c3d 90d8 5f3d 1c3e 623d
000000b0: 3abd 9fbd 0061 b0bd 0881 b93d 721d 59bd
000000c0: 58ad 37bd b4fe 683d aa10 92bd 0c16 ed3d
000000d0: 387f e53c d8e1 adbc 2422 e9bd 7e97 ef3d
000000e0: b40c c3bc 0080 d136 b4ba 3bbd ec36 90bc
000000f0: b29b d33d b024 02bc f0f6 c33d 664a ffbd
00000100: e101 c2bd 923a 1fbd a034 4d3c 7cd8 253d
00000110: b03d 083c 5853 1c3d 5cbd 0bbd 46b0 03bd
00000120: 1218 28bd d8b6 d23d 50a7 733c d0df d0bb
00000130: 3240 c8bd 8c4a 24bd 0201 c8bd b077 583d
00000140: 20b9 dabb 2f03 d1bd 8c5a 8a3d 00e8 fa3a
00000150: 9abd 45bd f024 6e3d c032 903d 8859 fe3c
00000160: 5a25 e13d c050 c23d 5882 0bbd 082e 013d
00000170: f4dc 91bc 1f1b 04be f267 c93d c6ec b0bd
00000180: 6e3d b5bd 8455 48bd a0aa 9c3d 5250 e53d
00000190: 2493 8a3d f230 e93d 003e cbb9 b0c0 f73c
000001a0: 6851 923d d8b5 afbd 4966 fdbd aa07 3dbd
000001b0: f819 ee3c 4498 413d f431 aebc b49f 8e3d
000001c0: 3fca e6bd a0aa da3d 74fb 81bd cf74 033e
000001d0: d42a e6bd ef2d 003e 4803 923c 8ecd ed3d
000001e0: 68c5 eb3d aa07 e53d 70d3 ce3d c98b f5bd
000001f0: 40e6 3f3c 7003 7a3c c0d1 0ebd 20b6 eebc
00000200: d26b f73d 697b ddbd 2833 d8bc 2a92 da3d
00000210: 4ed9 b93d 650e d9bd 26bd 03bd 2742 9bbd
00000220: e123 80bd 6f1d f6bd dae0 c13d 6805 c3bc
00000230: d0f3 e6bb 920f 963d dc48 413d 0411 053d
00000240: d080 da3c 9057 703d 0049 8fbc cc70 313d
00000250: 88c0 c93d 72fc e13d 9ce2 103d c476 cfbc
00000260: 8483 9abd fd76 c0bd 8474 323d 1a71 53bd
00000270: d84a 113d af87 90bd e0c3 893d 6e4d c03d
00000280: d4ce 4b3d 80cd f0bb 8127 afbd 9ac0 a9bd
00000290: 78eb 413d 0c40 2dbd 24d7 b8bd 38e0 313d
000002a0: deb3 c53d d475 5c3d 5153 d7bd dc02 5cbd
000002b0: 9492 cebd 005f b5bd 04c8 843d 2059 af3b
000002c0: 4413 7a3d d4fa 70bd 309b c53d 7a14 75bd
000002d0: d08f 8abc 5145 e8bd dc26 c8bd 129d e93d
000002e0: d25a df3d e935 c7bd be6f b43d bda3 013e
000002f0: 5ce6 293d b0d0 b23d ca98 72bd de14 c33d
00000300: e069 7ebd e8b0 7a3d f0c2 83bc 3476 ffbd
00000310: 3895 54bc 365a 8e3d 1029 68bc f046 6ebd
00000320: 58b8 593d 0418 063d 4039 ccbd 0874 b4bd
00000330: f041 e93d 2ac6 99bd e3ef b2bd 30d0 50bd
00000340: 00e0 14b9 524d db3d e8a9 723d d675 a03d
00000350: 00d2 ca3a 50d7 62bc d25c 00be 46af 35bd
00000360: ac88 923d 001a 193a b0f6 873d 18e8 f63d
00000370: bda6 dbbd f667 bb3d cc5a 813d dade f73d
00000380: 1096 263c 2065 4b3c 104f 5e3d 6046 f4bb
00000390: e825 fa3c c219 8fbd 6656 fe3d ce3c 973d
000003a0: d8a6 febd 50df f13d c047 f73b bafb a33d
000003b0: c890 423d 322b 4abd 7c85 9abd 9e24 f33d
000003c0: d8b2 50bc 006c b6ba 1a24 32bd 584a 5fbc
000003d0: 7e77 9c3d 083e 16bd a707 fdbd 7c6d 27bd
000003e0: 3a63 fa3d 3cc2 763d 40a8 cf3d 6832 91bc
000003f0: ad0a ccbd 28c6 68bd aecc a5bd a0d1 9c3d

3 f4 [5]
-0.08095038 0.08699906 -0.09262662 -0.035253644 -0.037034974
00000000: 50c9 a5bd 902c b23d 06b3 bdbd 2066 10bd
00000010: fcb1 17bd
