conv2d/test.onnx (onnx, 2492 bytes, 2 tensors)

2 f4 [5, 2, 3, 10]
-0.05859177 0.045092165 -0.02531489 0.119665936 0.050851896 0.09069729 -0.06614874 0.08420499
0.073391914 0.10751739 0.015940875 0.046554208 -0.040491134 0.076650396 -0.040230274 0.031168878
-0.04227473 0.12239699 -0.026143618 -0.11952318 0.002422139 -0.10306977 0.07067762 -0.0023094118
-0.12203812 -0.05629667 -0.049995534 -0.014742799 0.0252911 0.08816756 -0.051258303 0.10114221
0.02127321 -0.012072384 -0.04596526 -0.066096604 0.03272882 -0.07203758 0.0005800724 0.08712287
-0.042278618 0.06537554 -0.07627346 0.016501725 0.042453438 -0.047100984 -0.07316387 -0.011410423
-0.011949509 0.018628955 0.027587831 -0.06352485 0.016414776 0.034521937 0.0012516379 -0.11296389
0.010902166 0.056166604 0.07838085 -0.010081306 -0.11688253 -0.09337616 0.103102505 0.09709747
-0.07484859 -0.075850666 0.081407785 0.11693002 -0.12455615 -0.09567815 -0.005426973 -0.0896565
0.09573488 0.091005296 -0.0031404048 0.079424575 -0.011132464 -0.014564492 0.008495614 0.079684585
-0.014336064 -0.09264293 -0.09546644 0.015713394 0.03411165 0.0708404 -0.01446709 0.04402013
0.07036719 -0.04940307 0.01647599 0.08332677 0.11548041 -0.062959075 0.0069051087 0.031392142
-0.007912435 0.02044627 -0.0010366291 -0.090305746 -0.05592808 0.06202683 0.06379084 -0.096419215
-0.10806202 0.104104355 0.12693663 -0.0005187988 -0.026012175 0.11506836 -0.061809927 -0.07914275
-0.014343895 0.10553528 -0.117188714 0.049249634 -0.121892914 -0.08146408 -0.08506097 0.062630385
-0.0510531 0.03363146 -0.025869556 0.10687928 -0.06601225 0.082198784 0.12219314 -0.07701446
0.02710998 0.095686704 -0.045108154 -0.096105725 0.08978976 -0.098769106 0.0067801327 0.009444922
0.004215941 -0.06036196 -0.06779365 0.0440062 0.018578038 -0.08304763 -0.08307557 -0.06137646
-0.1144343 -0.10585937 -0.1262461 0.01200369 -0.092687994 0.02274163 -0.096485496 0.021165252
-0.008435778 0.11406596 0.097209066 -0.09547682 0.07243784 0.08408533 0.014493197 -0.037458792
0.09269984 -0.07373911 0.015887648 0.11556868 -0.06771265 -0.12819457 0.097093984 -0.091581464
-0.0206277 -0.110401854 0.029549018 0.11923784 0.05433148 -0.006017171 -0.055117898 0.03809476
-0.10132164 -0.047258854 -0.06235613 -0.09922569 -0.03989867 -0.009011358 -0.073271215 0.04429245
0.1267689 0.03485772 -0.037968725 -0.061714374 -0.032042287 -0.10228584 0.06728917 0.0073408186
0.104510725 -0.09685366 0.10683365 -0.11679686 -0.031371556 -0.11630024 0.0772291 0.09117678
0.012869939 0.03913015 0.07512818 0.09437214 -0.12571527 0.05099173 0.08006251 -0.09895089
0.021755785 -0.050551437 0.056053013 -0.0580649 0.12325938 -0.015273601 -0.07575349 -0.0540604
0.07151921 0.00027504563 -0.033973545 -0.088133164 -0.08506723 0.0810651 0.01943241 0.06520839
0.0538041 -0.028392598 0.10241817 0.056930125 -0.049495965 -0.09665228 -0.08378679 0.093302816
-0.009039663 0.074515074 0.07558106 0.0932273 -0.07509059 0.09076932 0.018199027 0.111797646
0.05273561 0.016482532 -0.10315685 -0.047597 -0.081589505 -0.11215612 -0.11584219 -0.11867198
0.11054774 -0.106641 -0.07089828 -0.09942627 0.112449855 0.12012693 -0.032875277 -0.11015986
00000000: ecfd 6fbd 90b2 383d 2c61 cfbc 6a13 f53d
00000010: 144a 503d 80bf b93d fe78 87bd aa73 ac3d
00000020: 804e 963d 1432 dc3d 7096 823c a0af 3e3d
00000030: 08da 25bd e2fa 9c3d 80c8 24bd e055 ff3c
00000040: 4428 2dbd 46ab fa3d 242b d6bc 92c8 f4bd
00000050: c0bc 1e3b 3e16 d3bd 6ebf 903d 8059 17bb
00000060: 1fef f9bd 5697 66bd 1ec8 4cbd c88b 71bc
00000070: 482f cf3c 3291 b43d 3af4 51bd a623 cf3d
00000080: 2845 ae3c 40cb 45bc 1246 3cbd a85d 87bd
00000090: a80e 063d 7088 93bd 0010 183a 7a6d b23d
000000a0: 582c 2dbd 9ce3 853d 4335 9cbd a02e 873c
000000b0: a8e3 2d3d f6ec 40bd f0d6 95bd c8f2 3abc
000000c0: e0c7 43bc c09b 983c e0ff e13c 5119 82bd
000000d0: 4878 863c e066 0d3d 000e a43a 9d59 e7bd
000000e0: 009f 323c f40e 663d 2486 a03d 102c 25bc
000000f0: 1c60 efbd 003c bfbd 6827 d33d 0adb c63d
00000100: 384a 99bd 9857 9bbd 20b9 a63d 0279 ef3d
00000110: 4b17 ffbd e8f2 c3bd c0d4 b1bb d49d b7bd
00000120: a610 c43d fc60 ba3d 40cf 4dbb 5aa9 a23d
00000130: f064 36bc e89f 6ebc 3031 0b3c ac31 a33d
00000140: d0e1 6abc 94bb bdbd e983 c3bd 60b9 803c
00000150: a8b8 0b3d c614 913d 6007 6dbc 744e 343d
00000160: ac1c 903d e05a 4abd a8f8 863c 3aa7 aa3d
00000170: fe80 ec3d b0f0 80bd 4044 e23b 0c95 003d
00000180: 28a3 01bc f07e a73c 80df 87ba 38f2 b8bd
00000190: d814 65bd d80f 7e3d c6a4 823d 7077 c5bd
000001a0: 9f4f ddbd aa34 d53d adfb 013e 0000 08ba
000001b0: 7c17 d5bc f6a8 eb3d 682c 7dbd 9815 a2bd
000001c0: a802 6bbc e222 d83d a300 f0bd fcb9 493d
000001d0: fea2 f9bd a4d6 a6bd 7234 aebd 5c44 803d
000001e0: 0e1d 51bd 24c1 093d 64ec d3bc 86e3 da3d
000001f0: 6e31 87bd d657 a83d 6640 fa3d c2b9 9dbd
00000200: c015 de3c 64f7 c33d 54c3 38bd 14d3 c4bd
00000210: b2e3 b73d 7547 cabd e02b de3b e0be 1a3c
00000220: e025 8a3b 1a3e 77bd 66d7 8abd d83f 343d
00000230: f830 983c e014 aabd 8623 aabd e265 7bbd
00000240: 885c eabd cccc d8bd a846 01be 20ab 443c
00000250: 34d3 bdbd a84c ba3c 309a c5bd c062 ad3c
00000260: 3836 0abc 6a9b e93d 8c15 c73d 5a89 c3bd
00000270: 4a5a 943d ee34 ac3d e074 6d3c 646e 19bd
00000280: 6ad9 bd3d 8804 97bd d026 823c 46af ec3d
00000290: eeac 8abd 7045 03be 36d9 c63d 108f bbbd
000002a0: 6cfb a8bc 5e1a e2bd c810 f23c f832 f43d
000002b0: b08a 5e3d b02b c5bb 4ec3 61bd 4009 1c3d
000002c0: b881 cfbd 8092 41bd 2469 7fbd d736 cbbd
000002d0: ca6c 23bd 60a4 13bc 380f 96bd 006c 353d
000002e0: b5cf 013e f8c6 0e3d 1885 1bbd 36c8 7cbd
000002f0: c63e 03bd 3d7b d1bd e8ce 893d 408b f03b
00000300: b809 d63d 365b c6bd 9acb da3d 3133 efbd
00000310: 767f 00bd d22e eebd 4a2a 9e3d e4ba ba3d
00000320: 70dc 523c f046 203d cedc 993d 2e46 c13d
00000330: 81bb 00be b4dc 503d d0f7 a33d c4a6 cabd
00000340: 3039 b23c 060f 4fbd d897 653d 76d5 6dbd
00000350: 6a6f fc3d 203e 7abc a524 9bbd 706e 5dbd
00000360: aa78 923d 0034 9039 d827 0bbd 297f b4bd
00000370: ba37 aebd 7605 a63d b830 9f3c fa8b 853d
00000380: b061 5c3d 9897 e8bc 9ec0 d13d 902f 693d
00000390: 48bc 4abd a1f1 c5bd 6998 abbd 8c15 bf3d
000003a0: 181b 14bc 5c9b 983d 3eca 9a3d f4ed be3d
000003b0: 18c9 99bd 44e5 b93d 2016 953c 2af6 e43d
000003c0: 4c01 583d 6006 873c e643 d3bd 12f5 42bd
000003d0: 6618 a7bd 1cb2 e5bd ac3e edbd 4c0a f3bd
000003e0: da66 e23d 9966 dabd 1e33 91bd 00a0 cbbd
000003f0: 1c4c e63d 1c05 f63d 3aa8 06bd 7e9b e1bd

3 f4 [5]
0.06286542 -0.027160548 -0.020341784 0.12034649 -0.05771357
00000000: 96bf 803d cc7f debc d0a3 a6bc 3878 f63d
00000010: 1065 6cbd
